mlp_weights.pth (torch, 440304 bytes, 6 tensors)

layers.0.weight f4 [128, 784]
00000000: 7314 2f3c 0fac 02bd 6052 a93c 81de b03c
00000010: c023 893c a552 25bb ca41 42bc a077 023d
00000020: 93ac b73b e3ea f23c b8bd f638 2599 a3bb
00000030: ac45 ff3c 4e16 62bc 7152 cf3c 370c 3d3c
00000040: 0ef1 633c 550b 853c eef3 7e3b 9f92 0bbd
00000050: b383 23bc 1840 e73c da4c 88bc 5564 843c
00000060: 5158 f13c 8a3a fb3c 3acd 03bd ee95 5e3b
00000070: 2fc8 05bd 0560 bb3c aeab b23b fadd c1bc
00000080: 8109 373b cace bc3b 64e0 0b3d 5a72 1b3d
00000090: 3744 2f3e 68bb cb3e a2b3 213f f289 043f
000000a0: 04b6 d43e c183 2f3f 0d2b 7a3d 685e d53d
000000b0: 1e7f 7dbe cd34 833d 1ff1 ac3d 398f b93e
000000c0: ce07 a03e 1cc6 1d3f 9b7b fb3e b743 bdbb
000000d0: c16f ec3b a5c4 203c 8734 893c d375 443c
000000e0: 38e5 f9bb 752a db3c 809c 83bc d03c a33e
000000f0: ec88 f3bc c305 f63e b9ac 2c3f 3abb 443f
00000100: 7add 313f f370 873f 40d4 bc3f 4337 0a40
00000110: 61d3 923f babf c33e 35eb 213f 0037 b63e
00000120: 5126 9f3f db7b b33f 30e6 8f3f f8f9 4d3f
00000130: 6de7 d83e 78d9 91be c487 29be 0dfc 3a3f
00000140: 5049 e13e 2ea1 0bbd 8788 113d 7e64 94bc
00000150: 6ec0 fdbc 3ce6 88bc b184 17bb 3529 e43e
00000160: ddc4 003f 65ab 423f 1847 563f 402b 263f
00000170: 75c0 1d3f aa0c a43f 3f77 d43f da12 b23f
00000180: e105 ae3f 38c5 a63f a356 a43f 78ce 6f3f
00000190: e00d c83f 6138 1540 ad1c 1440 7152 0340
000001a0: 45c8 be3f e290 8dbd 3f01 f03e b2e9 713f
000001b0: 6f2e 863e a3a1 e83d fc70 c9bc aa6b 3abc
000001c0: 0c46 b63c 4a86 75ba 6eff 78bd 7738 9c3e
000001d0: c1ba 14be 76f2 febd 0192 ecbd b789 39be
000001e0: bd70 f2bc cafd 863e aea7 893f 0ede dbbe
000001f0: d2da 163e e91a d23e 5531 6d3e 1ff8 a83e
00000200: 23f1 343f 64b3 a63f fa7c 983f 3868 bd3e
00000210: b124 fc3c 0a0a c4be 591e b9be 21b0 30be
00000220: 480b 9dbe 3a3c 47bf 5cd7 96bd e936 01be
00000230: 7791 b13c 515c d53c f4c3 b33d f6f5 793d
00000240: 4ccd 29be 0974 29bf 1c99 e7be b996 1fbf
00000250: 7f9f 24bf a4a2 8fbe a0dc 90be f796 0cbf
00000260: 9ade d8bd 0627 033e 5ec0 c4bc 6d9f 9aba
00000270: 7a06 8a3e fa45 c63d f0d3 a4bd 6e1c 39bf
00000280: c0a6 96bf e3b0 8ebf ce57 65bf 7ab1 7bbf
00000290: bcdd 84bf 3dbc 79bf 2b2e 81be 2531 1639
000002a0: 1d7c 003d dc5e 6d3a 4223 18bf 6e16 0abf
000002b0: 7182 3fbf ef86 21bf dae2 86be cfdc 81bf
000002c0: 75d3 dabe 735a 2bbe 9b81 aabe e242 37bf
000002d0: 75b1 14bf b806 23bf b49c a4be 1112 76be
000002e0: 3456 6cbe c19b 8cbf fa67 b1bf 1cf9 b8bf
000002f0: c390 d6bf 878f f2bf 64ac dbbf d23a d9bf
00000300: 3e6d 67bf 1619 27bf 1af0 14be c8ce 473d
00000310: caaf f2bc 27f0 cebc 0910 1cbf 3099 6bbf
00000320: 3e43 dfbe 1694 77be 67c7 723e b737 c4be
00000330: 0e05 bdbe 69ae 85be e3cb dfbd b466 debe
00000340: 759a 3cbf b443 ffbe 1e37 1abf 8bcf a5be
00000350: f168 2cbe 5cbe 4fbf 4e04 95bf 3246 97bf
00000360: 88ca abbf 6a7f e0bf c84f 8ebf 3b7c 5bbf
00000370: bd02 afbd e05c 243e 7e56 663e 2491 8abd
00000380: b679 0e3c 6b6a 4bbc 62dd 88be ebf4 93bf
00000390: 6dea 6dbe 072d 7bbe 4f8b 083e 9bf8 06bf
000003a0: 8771 a8be c2fd 543d b449 493e 91ef 06bf
000003b0: 828f b2be ef5a fabd 6cb6 babe 0695 1cbf
000003c0: fe40 7ebf b6e2 81bf ed98 41bf 47c1 89bf
000003d0: 549e 9fbf 0863 d3bf bb64 a2bf 9015 1bbe
000003e0: 0968 29be 59e2 f53d 0802 a83e e787 a03b
000003f0: 5a81 87bc 5190 98be b85d 47be 3e38 31bf
0.010686028 -0.03190237 0.020669162 0.021590473 0.01674068 -0.0025226262 -0.011856506 0.031852365
0.0056052892 0.029653018 0.00011765532 -0.0049926215 0.031161152 -0.013799263 0.025307866 0.011538557
0.013912452 0.016240755 0.0038902718 -0.034075376 -0.00998013 0.028228804 -0.016638208 0.016161123
0.029461058 0.030667562 -0.03217814 0.0033963877 -0.032661613 0.022872934 0.0054525947 -0.023665417
0.0027929249 0.005761956 0.034149542 0.03795085 0.17115866 0.39791417 0.6316472 0.5177299
0.41545117 0.68560416 0.061076213 0.10418397 -0.24755523 0.06406555 0.08444428 0.36242083
0.31255955 0.61630416 0.4911774 -0.0057758945 0.0072154705 0.009812509 0.01674868 0.011990982
-0.007626202 0.026753644 -0.016065836 0.31882334 -0.029728375 0.4805127 0.67451054 0.76848185
0.6947857 1.0581344 1.4752274 2.159623 1.1470758 0.38232213 0.6324952 0.35588837
1.2433568 1.4022173 1.1242123 0.8045955 0.42364064 -0.28486228 -0.16555697 0.7304085
0.44001245 -0.03408926 0.035530593 -0.018114325 -0.030975547 -0.016711347 -0.0023119862 0.44562688
0.5030039 0.7604278 0.8370223 0.64909744 0.6162179 1.2816365 1.6598891 1.3912003
1.3595544 1.3028936 1.283894 0.9367442 1.5629234 2.331566 2.3142502 2.0519068
1.4904867 -0.069124 0.4687595 0.94497216 0.262073 0.11358955 -0.024590008 -0.011378208
0.022250198 -0.0009366019 -0.06079047 0.3051183 -0.14524366 -0.124485895 -0.115512855 -0.1811894
-0.029594773 0.263655 1.0754297 -0.42942852 0.14731911 0.41036156 0.2316335 0.330018
0.70680445 1.3023496 1.191314 0.36993575 0.030779215 -0.3828891 -0.36155966 -0.17254688
-0.3067267 -0.77826273 -0.07365295 -0.12618603 0.021675808 0.026044996 0.087776095 0.061025582
-0.16582221 -0.6619268 -0.45234 -0.6233936 -0.6430587 -0.28053772 -0.28293324 -0.54917854
-0.10589333 0.12807855 -0.02401751 -0.001179678 0.26958066 0.09681316 -0.08048236 -0.72309005
-1.1769638 -1.1147732 -0.89587104 -0.9831768 -1.0380168 -0.97552854 -0.25230536 0.00014323423
0.031368364 0.00090549677 -0.594288 -0.53940475 -0.7480841 -0.6309652 -0.2634495 -1.014551
-0.42739454 -0.16733722 -0.33302006 -0.7158643 -0.5808328 -0.63682127 -0.32150805 -0.2403033
-0.23079759 -1.0985032 -1.3859856 -1.4451022 -1.6762928 -1.8950051 -1.7161984 -1.6971076
-0.90401065 -0.65272653 -0.14544716 0.048781186 -0.029624838 -0.025260998 -0.6096197 -0.9203062
-0.4360599 -0.24177584 0.23708878 -0.38323757 -0.3691792 -0.26109627 -0.1092756 -0.4343773
-0.7367318 -0.4985634 -0.6024035 -0.32384905 -0.16836907 -0.8114984 -1.1641939 -1.1818297
-1.3421183 -1.7538884 -1.1118097 -0.85736436 -0.08545444 0.16051054 0.22493932 -0.067659646
0.00869601 -0.012415509 -0.26731402 -1.1559118 -0.23233958 -0.24528895 0.13334392 -0.5272309
-0.32899114 0.051999815 0.19657022 -0.527093 -0.34875113 -0.122243755 -0.36467302 -0.6116489
-0.9931792 -1.0147312 -0.7562397 -1.0762109 -1.2470193 -1.6514597 -1.268699 -0.15144944
-0.16543593 0.12006063 0.3281405 0.0048990133 -0.016541172 -0.29797605 -0.19469345 -0.69226444

layers.0.bias f4 [128]
00000000: 73c3 133d 02ed 03bf 6dbe 2cbd bd1e 47bd
00000010: 95f5 393e eb9b abbe b4ab 543c c9b3 213c
00000020: bfce 263f 1783 68bd be82 04bf 9105 81be
00000030: 1e4f 2bbf 8b44 53bf 23d5 80be 4513 2bbd
00000040: 9b81 75bd 8b23 f63d 1334 ecbc ed6e bebe
00000050: 87ad 01be b04f 02bd 09bf 44be e039 3d3f
00000060: 7596 e5be 8652 b63b 51bb 00bf dc76 bdbd
00000070: f400 bcbd f900 053e 1b8b e7be c90d adbd
00000080: 3340 45bd ee6e 6fbd 62d0 b4bd 30d5 fd3e
00000090: 67e6 323d e160 22bf 7d22 f5be 11b7 7cbd
000000a0: 4222 3cbf d10d 25bf ace1 6239 5b89 f63e
000000b0: 1ad4 80bd 27a9 f9be e132 1a3f 1239 1e3e
000000c0: 8b40 9ebd 9cd3 36bd ac0b 0a3f f97d 05bf
000000d0: dc7c 57bf d320 30bf f470 59bd c65e 8abd
000000e0: ae5b 5abc eb7a 893d 0c0d 66bd b008 85be
000000f0: 1ae6 08bf 1a30 79bf cfed bdbd 1b35 4b3f
00000100: d076 61be a051 0ebf ad5f 54bf 7d97 293e
00000110: c391 873e 7474 8cbd 3561 e7be 94c1 59be
00000120: 147a 6dbf 53fd e93e 120d c13e da85 bd3e
00000130: 8265 39be 743b 36bf 4dac 563e 1819 bcbd
00000140: 39bf b2ba 1cd2 a3be 57fe 0fbf ee01 a1be
00000150: 420e a1bd c600 cbbe 62c2 1dbf 51d6 06bf
00000160: 56ce 103e e437 43be fbc5 0bbe 9ab9 aebe
00000170: 4a62 e2bc f2ab c6bd a007 63be 2c78 05bf
00000180: 15f9 4bbe d3cc 70be 9cd5 18bf 3fb6 06bf
00000190: a00a d5be 80ac 51bd a5d7 283f fe65 20be
000001a0: 2af1 fdbe 612a aabe f5ac f1be 44b0 7fbd
000001b0: 92b3 9bbe 75ba 97be 5818 2a3e e5f6 243f
000001c0: a3c6 aebd 2a12 a0bd 4a67 44be fe59 c1be
000001d0: 86ef 3a3f a11a f63d 8064 dbbc e2aa aebd
000001e0: 95ba 58be 1576 92be 686d 0bbf 3267 2abf
000001f0: e7f2 9e3d fde2 c8be c3e9 ca3d 6095 0abe
0.036075067 -0.5153352 -0.04217379 -0.0486133 0.18160088 -0.33517393 0.01298039 0.009869524
0.6515922 -0.056765642 -0.51761997 -0.2519956 -0.669176 -0.82526463 -0.2516261 -0.041766424
-0.059938055 0.12018498 -0.028833425 -0.37194005 -0.12663852 -0.031814277 -0.19213499 0.73916435
-0.44841352 0.005564037 -0.5028582 -0.09251186 -0.09179869 0.12988652 -0.45223317 -0.08449895
-0.04815693 -0.0584554 -0.08828808 0.49576712 0.04367676 -0.63429075 -0.47877875 -0.061698023
-0.73489773 -0.6447421 0.00021637109 0.4815167 -0.06290455 -0.48761865 0.60233885 0.15451458
-0.07727154 -0.0446354 0.5392406 -0.52145344 -0.84174895 -0.68800086 -0.053086236 -0.06756358
-0.013327522 0.06712898 -0.056164786 -0.2598319 -0.5347611 -0.9733902 -0.09273874 0.7937791
-0.2201798 -0.555933 -0.8295849 0.16561694 0.26478395 -0.06858149 -0.4519135 -0.2126525
-0.927644 0.45701084 0.37705284 0.37016183 -0.18105128 -0.7118447 0.20964165 -0.09184474
-0.0013637311 -0.31996238 -0.56247467 -0.31446785 -0.078640476 -0.39649028 -0.6162473 -0.5267077
0.14141211 -0.1906429 -0.13649742 -0.34125978 -0.027634759 -0.09700765 -0.22170877 -0.5213649
-0.19919236 -0.23515634 -0.5970094 -0.52621835 -0.4160967 -0.0511899 0.6595405 -0.15663907
-0.49598056 -0.33235458 -0.47202268 -0.06242396 -0.3041044 -0.29634443 0.16610849 0.6443923
-0.08533981 -0.078159645 -0.19180027 -0.3776397 0.73021734 0.12016798 -0.02678132 -0.08528687
-0.21164925 -0.28605714 -0.54463816 -0.66563714 0.07761174 -0.39235678 0.09907868 -0.13533545

layers.2.weight f4 [64, 128]
00000000: ef7d 443f c3e2 293f 94f9 00be ac0c cfbc
00000010: dff1 c1bf eec7 45bf 69c7 93bf e019 88be
00000020: 7cf3 04bf 4337 81bd 6d1c dcbd 69dc 7abe
00000030: 9884 a43e 2099 02be 9ee6 783e 7879 d83b
00000040: 14e2 b1bf fb1d 11c0 71b1 d2bc 9a20 963f
00000050: d0ff 41be 846b d4bc 45e4 eebd 328c 9dbf
00000060: 3fd1 1b3f be25 653e b19a ba3e 44d3 f2bf
00000070: 7b2f eabd af79 47bf 7132 183f 8249 03bd
00000080: ada6 f6bd 2661 b8bd 67a2 05be ba71 ffbe
00000090: 0525 08bf c932 c83e 055d a33e 8bcc 003d
000000a0: 7060 363e 60ba c8bf 9b12 aabf 4915 39bf
000000b0: 6d42 91bc e6a8 99be b8e3 a13e d74b debe
000000c0: af79 0abe 4ffe 8a3c b536 18bf 4e34 0abf
000000d0: a675 fcbe c8b8 f83e 6d4d 803c e0a0 c43b
000000e0: 1f14 003f 92f0 e1bf 8e0f edbd 29ab fc3e
000000f0: 0cf3 73bf 23ea 653e 4c3f 57bd cf89 1cbe
00000100: 94d1 63bf 74f4 00bf d4ab 1a3f 88a0 b13f
00000110: c2a0 9dbe 0782 92bf 6ba7 5ebf ed17 28bf
00000120: 6962 08bf 8855 b5bf 5810 bcbf fab1 c3bd
00000130: 021b 91bf e184 1b3f 74ec de3e 8540 d4bf
00000140: eead 323f cd3c a43f 0a98 2bbf c8e3 98bf
00000150: 24e0 fcbe 89b0 843e 8627 96bf b41a 263e
00000160: b699 a3be a029 563e 5d87 10be 52ba bfbf
00000170: 8294 08bd 3352 9c3d 21c9 1cbf 7a73 81be
00000180: 53d6 04bf e7d7 b2be 533a ad3d 26b1 6dbf
00000190: 059a 1fbf 5392 12bd 285a f7bf b1b7 ffbd
000001a0: a4a5 f0be 8ad3 f2bf b35b 90be 3b2f 7fbd
000001b0: e484 e6bd ecf5 913e d129 05bf fe7b c7be
000001c0: 1dfc cfbc 371d a3bd 1f91 d2bd 5523 03bd
000001d0: 193b c43d c07b 76bf 55e5 1e3e 802d 97bd
000001e0: 8b2d 1abf fa66 fbbe 33fe 63be ae31 13bf
000001f0: 534a 40bf 3d06 6bbf f97d 543d 3dc5 363e
00000200: 748f 5f3e 53c2 993f 3608 8bbd 8150 e33d
00000210: ec47 263d ebd2 f13d 77c7 22bf 79ba 543f
00000220: 8fde a8bf c8ce 753d 8c12 cabe 5fdd c03d
00000230: fb31 86bb 2fb0 933f 39b6 83bf 38a7 8a3f
00000240: 5ea8 b13e db87 fd3f f832 d8bd 1a08 703e
00000250: 0516 cebf 95bc 253c 9eaf b93d 3294 0b3f
00000260: b688 153f 3b79 b0bf 48f1 723e 0504 80bd
00000270: a129 f5bc eec5 d8be 0fc2 863d c04e ca3c
00000280: e61c 463c 5523 f43d 4d54 dabb f759 51be
00000290: ee27 e93e bf30 86bf af50 24be f0ae 113c
000002a0: 5d2b 073c 5858 393f ecb7 97bf 99bc 86bf
000002b0: 5669 bd3c 850f c83e 7bfc d73f 48af 143f
000002c0: e659 10bd 39bd 913c 7577 c03f d7ea d43e
000002d0: 1deb bcbf 6ccf 153f f807 76bd 04fc 0ebd
000002e0: ec39 62bf 0f86 d1bf 0672 f33d 7e05 24bf
000002f0: 6676 5dbf 38ec 91be 70d3 2e3d 5d54 2d3f
00000300: 2472 863f 1d91 af3e 1cc6 973f 8a4f e23f
00000310: 626d 603f 0a88 f23d 2960 ea3d 55ae df3e
00000320: e213 10be 8927 8bbf 86e2 de3e cb68 babf
00000330: a98c 383f df4e 0a3f b2df ccbd a357 1c3f
00000340: 044e 56bf 5d15 493e 0b09 983f a84c 173f
00000350: 3102 f93e 09ed aebf 31ea 073f e6b4 86be
00000360: d1c7 95bf 9c63 9dbf 5435 693d dd8d 29be
00000370: 8fc9 debc fcdb bc3c 284c 29bd 9147 7bbe
00000380: 4dcf 4c3b e6a0 e7be e812 b7bd 7849 d03e
00000390: 70b6 9e3e 6174 db3d 51a6 e33c afe3 5cbe
000003a0: 7d9b 283f 41f6 debf bea0 90bf 81e0 7cbc
000003b0: 412f 0dbe da5f 03bd 9ebd 663f 27d8 2440
000003c0: 65c0 a33d 4e9b f9bd 5fa3 9c3d 7f23 b8bf
000003d0: 849f 3c40 ff2d 0fbf 5378 0ebf 5e1c 823b
000003e0: 891b 46bf 220d 09bf 241d debf 99dd a63d
000003f0: b201 1dbf 150c 2c3e eaf7 07c0 6eb9 483d
0.7675466 0.66361636 -0.12595206 -0.025274597 -1.5151938 -0.77258193 -1.154523 -0.2658224
-0.5193403 -0.063093685 -0.10747609 -0.24498142 0.3213241 -0.12753725 0.24306723 0.006606277
-1.3897119 -2.2674549 -0.025719376 1.1728699 -0.18945241 -0.025930174 -0.11664633 -1.2308409
0.6086616 0.22377679 0.36446145 -1.8970723 -0.114348374 -0.7792005 0.5945197 -0.032052524
-0.1204351 -0.090029046 -0.13050233 -0.49891454 -0.5318149 0.39101246 0.31906906 0.031445067
0.17810225 -1.5681877 -1.3286928 -0.72298104 -0.01773187 -0.30011672 0.31619048 -0.43417236
-0.13522981 0.016966967 -0.59458476 -0.5398606 -0.4930851 0.48578477 0.01566192 0.006000623
0.500307 -1.7651541 -0.115752324 0.49349335 -0.95292735 0.22452597 -0.0525506 -0.15286945
-0.88991666 -0.50373006 0.6041844 1.3877115 -0.3078671 -1.1445931 -0.8697421 -0.6566151
-0.5327516 -1.4166727 -1.4692488 -0.09555431 -1.1336367 0.6074963 0.43539774 -1.658219
0.69796646 1.2831055 -0.6702887 -1.1944513 -0.49389756 0.25915936 -1.1730812 0.16221124
-0.3195321 0.20914316 -0.14114137 -1.4978735 -0.033344753 0.07632866 -0.612444 -0.25283414
-0.5188953 -0.34930345 0.0845839 -0.9284843 -0.6234439 -0.035784077 -1.9324389 -0.12486208
-0.47001374 -1.8970807 -0.2819496 -0.0623009 -0.112558156 0.28507936 -0.5201693 -0.38961786
-0.025388772 -0.07964557 -0.10281586 -0.032016117 0.095815845 -0.9628258 0.1551717 -0.07381725
-0.60225743 -0.49102002 -0.22264938 -0.5749768 -0.7511341 -0.91806394 0.05187795 0.17848678
0.21832067 1.2012428 -0.067886755 0.11099339 0.040595934 0.118078075 -0.6358561 0.83097035
-1.319292 0.060011655 -0.39467275 0.09417223 -0.0040953136 1.1538142 -1.0289985 1.0832281
0.34698766 1.9807085 -0.105565965 0.2344059 -1.610047 0.010115762 0.090666994 0.54523003
0.5841173 -1.3786997 0.23724854 -0.06250767 -0.029927077 -0.42338508 0.065799825 0.024695754
0.012091851 0.119208016 -0.0066628815 -0.20444475 0.45538276 -1.0483626 -0.16046403 0.008891806
0.008250085 0.72400427 -1.1853004 -1.0526305 0.023121517 0.3907434 1.6873926 0.5807996
-0.035241984 0.017790424 1.5036455 0.4158542 -1.4759251 0.58519626 -0.060066193 -0.03490831
-0.8836963 -1.6369036 0.118869826 -0.6407088 -0.86508787 -0.28500533 0.04268211 0.67706853
1.0503583 0.342904 1.1857333 1.7680523 0.87666905 0.11842354 0.11444122 0.43687692
-0.14070085 -1.087144 0.435322 -1.456323 0.7208963 0.540266 -0.10003604 0.61071223
-0.8371279 0.19637056 1.187776 0.59101343 0.48634484 -1.3666087 0.5309172 -0.2630989
-1.1701604 -1.2296023 0.056935623 -0.16558023 -0.02719572 0.023054115 -0.041332394 -0.24539019
0.003125149 -0.45239943 -0.08939153 0.40681052 0.30998564 0.10715557 0.027789267 -0.2157123
0.65862256 -1.7418901 -1.1299055 -0.015434385 -0.13787557 -0.032073833 0.9013308 2.575693
0.07995681 -0.12187825 0.07648348 -1.4385833 2.947236 -0.5592956 -0.5565235 0.003970667
-0.77385765 -0.53535664 -1.7352643 0.08147735 -0.6133071 0.16801484 -2.1245065 0.049004965

layers.2.bias f4 [64]
00000000: e1a3 86be b6bb 4c3e 9097 65be 4945 ccbe
00000010: 4726 93be b1c1 5abf e75f 9e3f 34ac b4be
00000020: 410a 08be 364b 21bf 574c fbba bc89 053e
00000030: 2c93 45bf 963f 82be 6da7 a73f 556b 32bf
00000040: 6d18 833e b5f5 563e 894c 4c3e ff25 62bf
00000050: affa 15be d1d4 3bbe a65b 0fbe a336 133f
00000060: df85 92be f913 65bd 8cab 7ebf 352e 94bd
00000070: e711 593e 13f2 a1be 5b7e e8bc ecbd 1c3c
00000080: 0e89 30be 36e8 21bf 34e4 6ebf a7b4 e7be
00000090: 9832 653f a23a 9cbe bdb5 d9bd 395a 8d3e
000000a0: 717f e43c 2424 c9be 2056 f8be 0943 93be
000000b0: 5ba0 2bbf 902a 7dbe 3bac e8be 4895 4a3f
000000c0: 46ec 3dbe 8ea1 a7be 8edc 6a3f e0bb c13c
000000d0: 7497 6abf 865c 01bf 8297 d6be a9c2 44bf
000000e0: 0c03 aa3e a878 b1be 4254 34bf 0bfb 87be
000000f0: 11d0 c5be 532f c43e 92ad a3bd 1835 2abe
-0.26296905 0.19993481 -0.22421098 -0.3989661 -0.2874014 -0.854518 1.2373017 -0.3528763
-0.13285162 -0.6300539 -0.0019172531 0.13040823 -0.7717769 -0.25439137 1.3097969 -0.69695026
0.25604573 0.20992167 0.19951071 -0.8833923 -0.1464641 -0.18342902 -0.13999805 0.57505244
-0.2861776 -0.05592725 -0.9948051 -0.07235376 0.21198235 -0.3163 -0.028380563 0.009566765
-0.17239782 -0.6324495 -0.9331696 -0.45255014 0.89530325 -0.30513483 -0.10630367 0.27607897
0.0278928 -0.39285386 -0.48503208 -0.2876208 -0.6704156 -0.24723268 -0.454439 0.79134035
-0.18547162 -0.32740444 0.9174279 0.023649156 -0.9163735 -0.50531805 -0.41912466 -0.7685953
0.3320545 -0.34662366 -0.7044107 -0.26558718 -0.38635305 0.38317356 -0.0799209 -0.16621816

layers.4.weight f4 [10, 64]
00000000: 3cc0 993e 96fe 243f c218 05bf 3661 7f3e
00000010: 28eb 89be 6d7d 9fbe c362 afbf d6dc c2bf
00000020: 7bfb 6abc 171a f2be 5dd0 fa3c 296d c73f
00000030: dd06 8abe 0bc8 aa3f ff07 04bf 9dbc 5e3f
00000040: e4ec 28bf 0c0e 2cbe abbb d8be b332 963f
00000050: 3b1b 613e b76a 953f 53b7 0d3f 00c9 c83e
00000060: 0e87 90bf 1e82 1ebf 467c 3fbf 84e3 843d
00000070: 9b25 643e b6fc 3bbd 959c acbd 7aea 91bd
00000080: 3f05 4bbf 30b5 7d3f d4d1 243f f188 07bf
00000090: ccb9 42bf c419 ba3e 0358 2c3e cd19 6ebf
000000a0: 62bc 9cbf 1d9c 91be 28b0 8cbf 8340 963f
000000b0: d35a 77bf 9dc7 a1be 21e1 77bf 7f7c bc3d
000000c0: 8b33 f7bc 80ec 18be 4155 aabf d721 74bc
000000d0: 3c58 233e acaa a43d 1d6c 82bf 09cb 94bd
000000e0: b9e9 46bf 5b29 79bf b672 d9be fab6 c1bf
000000f0: 9c79 bfbf a9d3 c2be 5fe2 fbbe 5ff8 fe3c
00000100: dd8a 16be d565 3dbf 2498 763c 758c adbe
00000110: 4c56 863d 69f7 ccbe 7bc1 96bf f977 4a3f
00000120: ed9c 203d 8d6a 9fbf 8641 a4bc cc29 bf3d
00000130: 1b02 853f a70e b8bf b07e f9bd 348b 2cbf
00000140: 2ad9 cbbf 35e5 b4bd 38e4 d4be d35c 053f
00000150: 030a c3bf 9275 2f3d dd9a 003e 8c6f 31bf
00000160: 80bf ab3e f972 2b3f 71f7 9b3d 90f5 203c
00000170: af8a aabf 21b5 72bd acdd 27bf f42a 37bc
00000180: d3f3 07bf 0267 8cbf 86f6 42be 36df 8a3e
00000190: c1c4 9e3f 2215 36bf eaee 0b3c d03f 8abf
000001a0: 5a16 b13e 6acd 12bf 9ac7 b43c 31f6 c4bf
000001b0: 4f69 15bf ee3d af3f ca69 4d3f 6eca debe
000001c0: 65d8 89be 8d0f 03c0 118b 42be 8109 3abb
000001d0: 4845 d73e 85b4 60be 6352 e03f fb87 853f
000001e0: 7628 acbf b205 75bf 126a efbe 2cf3 2a3f
000001f0: 10fd 50bf 9f68 c63f ee00 34bf df82 9ebf
00000200: 63f7 593f 26c0 98bf 9c99 d73f a604 2abf
00000210: 04e7 81bc 4555 1ebf f0a6 913f 98d5 c8bf
00000220: ebf8 89bd c60c 3cbd 5ae3 89bd 37f6 a9bf
00000230: 7395 3ebe 5999 a5bd f4ee fc3e be8d f6be
00000240: f369 593f 2911 603f b1c9 5bbe b7f8 8e3f
00000250: 99d8 443d 7ea9 3ebf d3d8 a03f 74e4 9dbd
00000260: 39b7 e43f 9883 3b3f 0012 39be f515 a23e
00000270: 07cc a4bf fd45 b9be d69f dd3e 25d8 573d
00000280: d085 d03c 88a9 543f 02aa 96be 80cf 173f
00000290: 17a4 d83e 7063 ecbe 00fd 563d 707c 6ebf
000002a0: 2923 143f 8475 dfbe 4a1c 4dbf 2335 843e
000002b0: a9e4 753f ffa1 25bf 7c11 b1bf 2569 98bf
000002c0: 0d1e 083e 53b9 88bf b052 dabf 88f2 273e
000002d0: b305 46be c27a f1be d93b a8be ba45 d8bd
000002e0: 9b4d d03f 59f1 7ebf bbeb 45bd 8201 20bf
000002f0: 3865 8b3f da86 fdbe ca0c 1a3c 710a 95be
00000300: 76e9 07be 7c64 b9bf 5bc4 b4be 5fa3 b4be
00000310: d7c5 0f3e de4c 32be ae25 003e ac4f 8f3f
00000320: 3a3d b5ba ffb1 6a3e 08ba 643e 6d58 b0be
00000330: 0aee 403d a689 77bf 1028 23bf 297d b53e
00000340: b9dc aebf 5572 c3bf a9de 2fbf f9e9 e3be
00000350: 0bf6 de3b 153b 3cbf d4f8 f83c 1cdb 913e
00000360: 796c f9be 2497 fdbe c457 7b3f c361 a6bc
00000370: 2991 73bf 262c 153c e8e6 293f 9e8c 633d
00000380: 021d 41bf 833a c43e 86ae 503f e8fd 2b3f
00000390: f52f a2bf b5cf 3abf 9588 87bd bef4 463f
000003a0: d205 aabf 4dcc 96be f47c ea3e 0420 a2be
000003b0: b970 9bbf 3de2 27be 4b58 183f c419 f6bf
000003c0: 17e8 11bc 0a4d 553f ef5e 63be 0966 d8bc
000003d0: 1a75 6cbf 9282 74bf 712a 473e 2a12 073f
000003e0: d1c5 d03f 5a85 8c3f 4878 2bbc a618 14bf
000003f0: e6ef 22be 6063 b7bf 9d2d a9bf 3767 93bf
0.30029476 0.6445097 -0.519909 0.24939427 -0.26937222 -0.3115038 -1.3702015 -1.5223644
-0.014342184 -0.4728553 0.030616933 1.5580188 -0.2695836 1.3342298 -0.515747 0.8700655
-0.65986466 -0.16802233 -0.4233068 1.1734222 0.21983044 1.1673192 0.55357856 0.3921585
-1.1291215 -0.61917293 -0.74799 0.06488708 0.2227997 -0.0458953 -0.08428303 -0.07124801
-0.7930488 0.99104595 0.6438267 -0.5294333 -0.76064754 0.36347783 0.16830449 -0.9300812
-1.224499 -0.28439417 -1.0991259 1.1738437 -0.9662296 -0.31597605 -0.96827894 0.09203433
-0.030175945 -0.14933968 -1.3307267 -0.014900646 0.15951627 0.080403656 -1.0189244 -0.072652884
-0.7770038 -0.9732873 -0.4247033 -1.5133965 -1.4958987 -0.3805211 -0.49196145 0.031124292
-0.1470141 -0.7398351 0.015050922 -0.33896223 0.065594286 -0.4003251 -1.1777796 0.79089314
0.039212156 -1.2454392 -0.020050775 0.09334144 1.0391268 -1.4379472 -0.12182367 -0.6739991
-1.5925648 -0.0883278 -0.41580367 0.52094764 -1.523743 0.042836733 0.12559076 -0.6931083
0.3354454 0.6697231 0.07615555 0.009824172 -1.3323573 -0.05925477 -0.6557262 -0.011179674
-0.5310642 -1.0968935 -0.19039354 0.2712342 1.2403795 -0.71125996 0.008540848 -1.0800724
0.34587365 -0.57344687 0.022067834 -1.5387632 -0.58363813 1.3690774 0.80239546 -0.43513817
-0.26922908 -2.0478241 -0.18998362 -0.0028387012 0.42045045 -0.21943863 1.7525142 1.0432123
-1.3449848 -0.95711815 -0.46760613 0.667773 -0.8163614 1.5500678 -0.7031392 -1.2383689
0.8514311 -1.1933639 1.6843753 -0.6641334 -0.015857227 -0.6184886 1.137907 -1.5690184
-0.067369305 -0.04591062 -0.06732817 -1.3278264 -0.18611698 -0.08085889 0.49401057 -0.48155016
0.8492729 0.87526184 -0.21463658 1.1169652 0.048058126 -0.74477375 1.256617 -0.077095896
1.7868415 0.7324767 -0.18073273 0.31657377 -1.2874764 -0.3618621 0.43286008 0.052696366
0.025454432 0.83071184 -0.2942658 0.59300995 0.4231269 -0.46169615 0.052487373 -0.93158627
0.5786615 -0.43644345 -0.8012129 0.2582179 0.9605203 -0.6470031 -1.3833461 -1.1907088
0.13292713 -1.0681556 -1.7056484 0.16401112 -0.19338112 -0.4716397 -0.3285816 -0.10560174
1.6273683 -0.9958702 -0.048320513 -0.625023 1.0890265 -0.49516946 0.009402463 -0.2910953
-0.13272652 -1.448379 -0.35306057 -0.35280892 0.14040314 -0.17412135 0.12514374 1.1196189
-0.0013827451 0.22919463 0.2233659 -0.34442464 0.04710201 -0.9669441 -0.63733006 0.35447052
-1.3661109 -1.5269266 -0.6869913 -0.44514444 0.006804233 -0.7352765 0.030392088 0.2848748
-0.4871557 -0.49529374 0.98180795 -0.020310288 -0.9514337 0.009104764 0.6636796 0.055554025
-0.7543489 0.3832589 0.815163 0.67184305 -1.2670885 -0.72973186 -0.06617848 0.77717197
-1.3283026 -0.29452744 0.45798457 -0.3166505 -1.2143775 -0.16394897 0.59509724 -1.9226613
-0.008905432 0.8332068 -0.22204183 -0.026415842 -0.9236618 -0.95511734 0.19449784 0.5276209
1.6310369 1.0978196 -0.010465689 -0.5785011 -0.15911826 -1.4327202 -1.3217045 -1.1515874

layers.4.bias f4 [10]
00000000: 9e8a ecbe ef35 1ebd fea4 c23c 037c ecbd
00000010: 792f 793e 1ba8 b1bc 1e27 3abe 2283 58bf
00000020: 869b 893f d334 5a3d
-0.46199507 -0.038625654 0.023760315 -0.11547091 0.24334516 -0.021686604 -0.18178985 -0.8457509
1.0750587 0.053273033
